Speech_to_text/Commands_Recognition/epoch_194.pth (torch, 930055 bytes, 10 tensors)

conv1.weight f4 [8, 1, 3, 3]
00000000: 94d8 013e 16f5 4e3c dcde acbd fd97 db3d
00000010: 7292 d3be 1e20 393d 38ce d7bd 609e 193e
00000020: abe1 a33d ec18 cabe 4572 cfbe 364d af3d
00000030: 5a45 93be 4916 efbe e038 7f3d eaf3 85bd
00000040: b7a3 ae3d 5dfd fa3d aabd ff3d 3b0d dcbd
00000050: eaba 8f3d 39f5 10bd aab3 9ebe 2c54 e03c
00000060: b6ed e33d 396d 69bd 3097 193e 3296 193b
00000070: b7c1 ebbc 86ca 513d 9e2c 51bb 5d62 853d
00000080: da73 3abd 6fc3 193c 4a18 43bc f155 5d3d
00000090: 7711 393d 7a2e f03b 2c8c 30bc f979 d2bc
000000a0: 947f 333d 9fde d93c 6206 443c 683c 16bc
000000b0: 056f 5e3c 9f77 893c 16ee 8fbc 09a7 d2be
000000c0: b2f7 a7bc 36ea a7bd eaae 99be b459 0b3e
000000d0: 4d14 93bd 006d c3bd c728 5b3d 002e e7bd
000000e0: 14b7 913d 4726 0e3d 9135 8cbc bc87 f0bc
000000f0: 2e9c 0c3b 6028 bb3c 564e e8bb f7cd 7f3d
00000100: 4503 733d 408b f73c 3f7b 463d 3107 563c
00000110: 04b7 13be 9226 f2bc 4278 a5be d648 4dbf
0.12680274 0.012631675 -0.084409446 0.10722349 -0.41322666 0.045196645 -0.1053738 0.15001822
0.08002027 -0.3947214 -0.40516868 0.08559649 -0.2876385 -0.4669669 0.0623101 -0.065406635
0.0852732 0.122553565 0.124873474 -0.10744711 0.07018073 -0.035390113 -0.30996448 0.027383886
0.11129324 -0.05698893 0.1499908 0.002343547 -0.028778894 0.051218532 -0.0031917463 0.06512902
-0.04552064 0.009384974 -0.011907646 0.05403704 0.04518267 0.007329759 -0.010775607 -0.025692927
0.04382284 0.026595412 0.011964412 -0.009169675 0.013576274 0.016780673 -0.017569583 -0.41143063
-0.020503853 -0.08198969 -0.3001626 0.13608438 -0.071816064 -0.095422745 0.053505685 -0.11288071
0.071149975 0.034704473 -0.017115386 -0.029361598 0.0021455395 0.0228464 -0.0070894165 0.062452283
0.05932929 0.030217767 0.04845738 0.013063238 -0.14425284 -0.029559407 -0.32318312 -0.80189264

conv1.bias f4 [8]
00000000: 351e 95c0 6bec f7be ec97 afc0 3deb 96ba
00000010: 813c 69bb 02d5 2f39 9b2e 7fb9 ac2a 63bd
-4.6599374 -0.4842256 -5.487295 -0.0011514198 -0.0035589042 0.00016768652 -0.00024336057 -0.055460617

conv2.weight f4 [16, 8, 3, 3]
00000000: 57da 9abe 2f1b f7bf 40b8 9dbf ed4f 24bd
00000010: 24be 86bf 6b2e a4bf fdec 7fbc 8b28 5fbe
00000020: d929 bdbf 3c92 ccbf 5c34 cbbf ecb0 98bd
00000030: 636a 94be f9d9 82bf 2fc6 aebf d74c 98bd
00000040: ea21 a8be 3046 aebf 4d59 f8be df12 a9bf
00000050: 8410 26bf e31e 82bd 804e 3ebf c06c afbf
00000060: d35b fdbc 5854 95be 9017 b3bf 743d 003c
00000070: 8bb6 aabf 5dff 57c0 c6cb 993d d942 3b3e
00000080: 7703 05c0 f689 f83d c1db 473e f79a a2be
00000090: f4a5 573c 74c8 01bf a1e8 7cc0 6e6f 993d
000000a0: 85f7 893c 04af 30c0 19f9 db3d 4bca 293e
000000b0: fd22 a5be ef75 4d3b 5a07 903d b617 6abe
000000c0: 7180 233d 63e2 093e 6349 2e3f eead 2c3d
000000d0: d6fb ca3d 2be5 de3e aea7 59ba 08df 21be
000000e0: 10ed 8abf 8932 5e3d 9e28 263e c152 9bbf
000000f0: f152 c53d 7363 293e 088a b03d d1bf f0bc
00000100: 4a8f 10bf 77f1 f1bf 6a64 8fbd 55ad 69bf
00000110: 24d6 93c0 a1da 123c 3ab0 04bd 532e 02bf
00000120: 688a 35bb 9b83 b1bd 3cda 85bf 7c88 00bd
00000130: 5358 99bf e36b 20bf 7f10 babf a9c2 30be
00000140: 6e57 76be 9005 693d ba70 c4be c04b 51bf
00000150: 0f29 81bf c4bf cdbe eb84 c9bd 6990 80bf
00000160: 4759 85be 944f d5be 0bdf a1bc c715 60be
00000170: 0ab7 a9bf ec42 c6bd b64e 81bf a635 9dbe
00000180: fc60 74bf 26db d0be 0337 29be 9a38 dd3d
00000190: 0d9d d43d d040 4abf 840a 98bd 4322 f4bf
000001a0: 7e03 67c0 7b93 d1bf 987f 79c0 91a0 85c0
000001b0: e777 ff3c a377 623d 8522 60bd ba1b 3a3e
000001c0: 3e5c d0be a366 2ac0 7fbb f0be 3f05 76c0
000001d0: 6422 91c0 e739 6f3c 87ec 653d 1ada c73d
000001e0: b69e a5bd 7633 f1bf be25 15c0 c18b 4ebe
000001f0: 3d9d dabf fa76 bfbf 1698 893d ef84 523e
00000200: cb54 1cbd 9066 433e e812 19bd a571 10c0
00000210: 8891 95be afd8 43c0 893c 84c0 904e f13c
00000220: 50ec b9bc 64ee b8bd 7925 ac3b 9b8b 03bf
00000230: 7646 21c0 84e4 46bf 5c50 34c0 04de 00c0
00000240: 018a b9bc 3405 ecbe c308 abbf 1c90 b7bd
00000250: 3dc2 90be b2b5 31bf 70da b8be 80c3 b2be
00000260: 0056 9fbe 02f4 0dbd c07a 88bf e6de fbbe
00000270: 87bb 50bf 777a 89bf 4a58 b63c 1d27 73bf
00000280: 0521 00bf ce07 60bd 7bbf 8abd 3423 f9be
00000290: 2261 b7bf 7528 45be 970c 04bf b235 2cbf
000002a0: 0bb2 14bf 44ea 07bf 2eff c9be ba46 de3d
000002b0: 33bc 1abd 4eb4 38bf 4b01 0e3e 51e0 fc3c
000002c0: 36ca 1bbf 8faa 593c 01dd 173c 556a 23bd
000002d0: 2eca f03d 4a25 92bc 6d3f 0ebf 3ea1 883d
000002e0: 666c 2c3d 235b 1dbf 070e 1abc 9724 883d
000002f0: 7e19 f5bd eda7 9c3d 315e 543e 1744 643f
00000300: 0e09 58bd 1e66 b83e 0b75 503f a694 64bd
00000310: 222b c13d 1c02 2c3e 0c92 8a3d c3ea 3c3e
00000320: 54e0 64be 6ae0 fe3d 207c a53e 0ba1 8abe
00000330: aa15 833d 8646 073e f2a6 993d 15d7 31bd
00000340: cea0 c5bd 5ade 77bf 8d95 9cbb 9c25 bfba
00000350: f095 b1bf c96e fd3b 71b8 33bd c053 a8bf
00000360: ac3c 36bf 4b6a 06be dd29 0fbc b978 6abd
00000370: a601 c9bd 330b 6ebd e00a 29bd 42aa 69be
00000380: 5e65 6dbf 1341 17bd 25e9 74bc d84e 533c
00000390: 6e16 933d f31a 193d c381 de3c 4bb2 86bd
000003a0: 05a8 83be 81a7 bebe d6a0 59bf 2ad1 dfbd
000003b0: 6a71 1c3b c1d7 54bd 0bfe 33be 1602 d6bc
000003c0: 2992 aabd 9330 24bf e169 3bbf fcf7 7fbd
000003d0: 23f9 02bd c5a3 373c 3466 b73d 7ef8 5c3e
000003e0: adda 473d b431 303c 930c 3dbd e12d 26be
000003f0: ca31 fdbd 6aad b3bc 69ec 66bb b72e ba3c
-0.30244705 -1.9305171 -1.2321854 -0.040115286 -1.0526776 -1.2826666 -0.015620467 -0.2179281
-1.4778396 -1.5982127 -1.5875354 -0.0745562 -0.28987417 -1.022277 -1.3654231 -0.07436531
-0.32838374 -1.361517 -0.4850563 -1.3208884 -0.6486895 -0.063535474 -0.7433853 -1.3705063
-0.030927574 -0.29165912 -1.3991566 0.007827152 -1.3336958 -3.3749611 0.0750957 0.18287219
-2.0783365 0.12135689 0.19517423 -0.31758854 0.013162125 -0.5069649 -3.9516985 0.07491957
0.01684166 -2.760682 0.10740871 0.16581075 -0.32253256 0.0031350811 0.07032652 -0.22860608
0.039917413 0.13465266 0.6808073 0.04215806 0.09911315 0.43534216 -0.0008302879 -0.15807736
-1.0853596 0.054247413 0.16226432 -1.213463 0.096349604 0.16541843 0.08620077 -0.02938834
-0.5646864 -1.8901814 -0.07001574 -0.9128011 -4.61989 0.008963258 -0.032394625 -0.50851935
-0.0027700905 -0.0866768 -1.0457225 -0.03138016 -1.198008 -0.6266462 -1.4536284 -0.17261757
-0.2405679 0.05689007 -0.38367254 -0.8175621 -1.0090655 -0.40185368 -0.09839805 -1.004407
-0.26044676 -0.41662276 -0.019759675 -0.21883307 -1.3258984 -0.09680733 -1.0102146 -0.30704993
-0.95460486 -0.40792197 -0.16524892 0.108018115 0.103815176 -0.79005146 -0.07423881 -1.9072956
-3.6095881 -1.6373132 -3.8984127 -4.1758504 0.031185104 0.055289876 -0.05472042 0.1817464
-0.40695375 -2.6625144 -0.47018048 -3.8440702 -4.535448 0.014601207 0.056133773 0.097583964
-0.08086912 -1.884383 -2.3304286 -0.201705 -1.7079235 -1.4958184 0.06718461 0.20558523
-0.038166802 0.19082093 -0.037371546 -2.2569363 -0.29212594 -3.0601003 -4.1323895 0.029456407
-0.02269569 -0.090298444 0.0052534905 -0.51384896 -2.5199256 -0.7769244 -2.8174047 -2.0135508
-0.022648813 -0.4609772 -1.3362049 -0.089630336 -0.28273192 -0.6941787 -0.36104155 -0.3491478
-0.311203 -0.034656532 -1.066246 -0.49193496 -0.81536144 -1.0740498 0.022258896 -0.9498156
-0.50050384 -0.054694943 -0.06774803 -0.4865967 -1.4326518 -0.19253714 -0.5158171 -0.6726943
-0.5808417 -0.53091836 -0.394525 0.10853334 -0.037777137 -0.72150123 0.1386768 0.030868681
-0.60855424 0.013285293 0.009269 -0.039896328 0.11757313 -0.017840046 -0.5556553 0.066713795
0.042095564 -0.6146719 -0.009402758 0.06647604 -0.11967753 0.07649217 0.20739056 0.89166397
-0.05274301 0.3601541 0.81428593 -0.055805825 0.09432055 0.1679768 0.067661375 0.1844893
-0.223512 0.12445147 0.32321262 -0.2707599 0.064006165 0.13210496 0.075025454 -0.04341801
-0.09649812 -0.96823657 -0.00477857 -0.0014583352 -1.3873882 0.007734154 -0.04387707 -1.3150558
-0.7118633 -0.13126485 -0.008738008 -0.057244036 -0.098147675 -0.05811615 -0.041270137 -0.22818854
-0.927328 -0.036927294 -0.014948164 0.012897216 0.071820125 0.037379216 0.027161485 -0.065769754
-0.25714126 -0.3723717 -0.8501104 -0.10928567 0.002387131 -0.05196357 -0.17577378 -0.026124042
-0.08328659 -0.6413662 -0.73208433 -0.062492356 -0.031975877 0.011208479 0.089550406 0.21579167
0.04879253 0.010754038 -0.04615457 -0.16228439 -0.12363012 -0.021933276 -0.0035236126 0.022727353

conv2.bias f4 [16]
00000000: 7ff7 6f3b 2563 093d d3a6 74b8 8b6c a839
00000010: a1be d638 87df 0f3a 91bb 6f3d 6ba7 2839
00000020: c69a adb8 13f9 873a 23d5 e43c ee47 d438
00000030: 921b 8239 6679 393a f2bd a73b a099 e939
0.0036616025 0.033541817 -5.83295e-05 0.00032124328 0.000102398226 0.0005488325 0.058528487 0.00016084097
-8.2781116e-05 0.0010373913 0.027933663 0.00010122346 0.00024816074 0.000707528 0.005119079 0.00044555683

fc1.weight f4 [256, 768]
00000000: 00de cb38 0010 febe d99f 0fbe c2d2 7c3d
00000010: e2a0 533e 2ef5 18be e809 fdbf fbe3 a7bf
00000020: e90b 24bd 5963 c23d ce11 8abe 8054 0ebe
00000030: dab0 043a 1214 08bd 61cd 18be 6c2f 3c3e
00000040: 4517 73be 626d 943d 037c af3e c827 8e3e
00000050: 0b53 dbbe 5d6d b6bf 09d4 2dbf 2f19 6f3d
00000060: 4105 53bf 356f 42bf 1192 b9bf 3e4e 76bf
00000070: 1ba5 98bf d97f 88bf cb02 bfbf 413a d0be
00000080: 1843 5bbe caa3 9a3e 31f8 0cbe 9538 b2bf
00000090: ca2a 5f3d c871 1abf 5f2b 3f3e cd49 883e
000000a0: a418 a0bd d48e e0be fb1f 54bf 17bd a1bf
000000b0: ed63 b9bc d38b 7c3e 4917 973c bfd0 a7be
000000c0: 07b7 443e 6cb3 d13e 38f0 093f 9677 c43e
000000d0: 1304 083e 8d98 29bf 2d2a 8cbe 10ae a23d
000000e0: 13c2 843d b0fd b1be add7 e23d b456 893e
000000f0: 70b2 81be e302 bcbf d317 4cbf 0948 0a3f
00000100: d3fd 14be e1c1 883e 55de 0abe e6b6 9dbe
00000110: 3896 bfbe d5f2 0e3d 8ffb 373e ccfc f7bd
00000120: 6565 c1bd eaaa 153e 9013 043e c902 203e
00000130: d600 07bf b4c5 34be f550 0a3e 35c7 a4bd
00000140: cae7 793e acf5 733e a2aa 623d 024a 9a3e
00000150: 367d 823b 90b6 083e ddb0 fa3d 83c1 0b3e
00000160: 68cf 63be b2f6 253e ea63 bd3e 0626 2f3f
00000170: 5365 a83e c46d 1a3e 9982 803e f4e7 003e
00000180: 7f38 b43d ed98 a7be c5f7 6b3e 7f11 173e
00000190: 1641 a03d fe91 adbe 17aa 5fbf 67bb ccbd
000001a0: ec5b 823e 97c6 993c efb7 313c cb93 bdbd
000001b0: 907e 1c3e 2c87 ac3d 5666 df3c 7d33 5c3e
000001c0: 2f65 a9be 8989 013e 709a 873e 0751 9cbd
000001d0: 4874 62bf 1c67 92bd cfaf 193e 9462 a13e
000001e0: 57c1 333e 8131 2c3e 01b0 8fbe f556 88bf
000001f0: 2ea5 87be ff2b 123e eb9a 083e 1202 b8be
00000200: 0e6e 4a3e 109c fc3d 1fb2 5abf 3c44 bcbf
00000210: 5288 dcbd 8a67 a63e b811 d73d bcaa e3be
00000220: bab2 acbe 7038 9b3e aa29 51bf b9b6 82bf
00000230: 41c8 043f 5cc2 1dbe 20eb 4fbf dab2 31bf
00000240: bb2c 7f3d ea49 163e 1648 863e 4c74 e83d
00000250: 70e8 053d d415 d9bd 1a97 8dbd 8b80 2ebe
00000260: 43a9 2dbe ac69 e4bd 9ee8 cdbd 6349 9b3c
00000270: b58d 6bba 36c6 8dbd cfac 9e3b c7b7 7cbe
00000280: 33b0 9abd 16b9 45bd 7ad8 1dbe a2e5 6abf
00000290: 097b e8bd 3247 e03d 67f9 ab3d 89d1 92bd
000002a0: c551 f53e d73d 5d3e 336e 48bf f404 b03e
000002b0: 5701 a83e ff82 913e 9c39 8c3d ca34 aebf
000002c0: 7227 c3bd dd80 69be 3473 0fbf 6169 3ebe
000002d0: a392 b33e 7c66 a8be 4a23 72bb d673 913e
000002e0: 0202 643e c273 2e3e de55 78bf d203 f9be
000002f0: 6762 63be ef62 17bf f832 91bf bffc 86bf
00000300: 639c 8abd bb01 0e3d 8744 babd 96f2 85bd
00000310: 1825 0cbe a4d8 af3d 3b2e 9c3d bbdc d63d
00000320: 6eb4 8abd 1d67 ab3d de84 a23c f4f9 63bc
00000330: 0aa1 03bd 1b84 ad3d a229 873d d386 933d
00000340: 0ed0 a73d 4e1b d93c b2c2 f83d e30d babe
00000350: bc65 a23d c453 c73c 2097 8fbd b6a0 3cbe
00000360: 2c42 89bd 91a8 b5be 6cf2 1dbf 24f3 3e3e
00000370: 15b2 943e 2399 853e d1aa 81be 6127 1dbf
00000380: a339 9b3e cb38 78bd c448 d5bf 4e9f 0d3e
00000390: bcca e43c 0bcb c43e 5106 cabc 5259 33bf
000003a0: 3a58 d43c 48c9 b5bd e55d 0bc0 7306 8ebf
000003b0: 3171 b23e 226d 1b3c caf8 39bf a4b4 babf
000003c0: 0b74 153e a027 363d 757c 373e 17a0 aebc
000003d0: 3292 003e 5c60 803e 1e19 8a3e 9943 213e
000003e0: 39df c4bb 8b50 303d 272e 903c d3d9 dbbd
000003f0: 4bdf d8bd fcfd 403d 7e7c 02be d252 6b3d
9.721145e-05 -0.49621582 -0.14025821 0.06172443 0.2066684 -0.14937279 -1.9768648 -1.3116449
-0.04005042 0.09491605 -0.2696671 -0.13899422 0.00050617533 -0.033222266 -0.14922096 0.18377465
-0.23739345 0.072474256 0.342743 0.27764726 -0.42836794 -1.4252125 -0.67901665 0.058373626
-0.8242989 -0.7595094 -1.4497701 -0.9621314 -1.1925386 -1.0664016 -1.4922727 -0.40669444
-0.21412313 0.30203086 -0.13766553 -1.3923517 0.054484166 -0.60329866 0.18668889 0.26618806
-0.078172 -0.4385897 -0.828613 -1.2635831 -0.022630656 0.24662714 0.01844372 -0.32776448
0.19210444 0.409572 0.5388217 0.38372487 0.13282804 -0.662484 -0.27375928 0.07943356
0.06482329 -0.3476386 0.11076293 0.26823962 -0.2533145 -1.4688381 -0.7972385 0.54016167
-0.14549951 0.26710418 -0.13561375 -0.30803603 -0.37419295 0.03489955 0.17967056 -0.12108764
-0.094431676 0.1461598 0.12898088 0.15626062 -0.5273565 -0.17653543 0.13507445 -0.08045808
0.24404827 0.23824185 0.05533851 0.30134588 0.0039822115 0.13350892 0.12240765 0.13648038
-0.22247088 0.16207388 0.3699029 0.68417394 0.32889804 0.15080935 0.25099638 0.12588483
0.08799838 -0.3273386 0.23043735 0.14752768 0.07824914 -0.33900446 -0.8736891 -0.09996682
0.25460756 0.018771453 0.010847076 -0.09256705 0.15282655 0.084242195 0.027270477 0.21504016
-0.3308501 0.12650122 0.26485014 -0.07632642 -0.8845868 -0.07148573 0.15008472 0.31520522
0.17554222 0.16815759 -0.28063968 -1.0651537 -0.2649321 0.14274596 0.13340347 -0.3593908
0.19768545 0.12334454 -0.8542804 -1.4708323 -0.107681885 0.3250087 0.105014265 -0.44466197
-0.33730108 0.30316496 -0.817042 -1.0212013 0.51868063 -0.15406173 -0.8121815 -0.6941353
0.062298518 0.14676633 0.26226872 0.11350307 0.032692373 -0.105998665 -0.06913586 -0.17041223
-0.169591 -0.11152968 -0.10054134 0.018955892 -0.00089856546 -0.06922571 0.0048423777 -0.2467948
-0.075531386 -0.048272215 -0.1541461 -0.9175664 -0.11351592 0.109510794 0.08397179 -0.07168872
0.47913948 0.21605621 -0.7829315 0.3437878 0.32813522 0.28420255 0.068469256 -1.360986
-0.09529008 -0.22803064 -0.5603516 -0.18594886 0.35072812 -0.3289069 -0.0036947303 0.28408688
0.22266391 0.17036346 -0.9700602 -0.48635727 -0.22205506 -0.59135336 -1.134368 -1.0545882
-0.0676811 0.03466962 -0.09095102 -0.0654041 -0.13686025 0.08586243 0.07626005 0.1049132
-0.067726955 0.08369277 0.019838747 -0.013914574 -0.032136 0.08472463 0.06599738 0.0720345
0.0819398 0.026502278 0.1214651 -0.3633872 0.079295605 0.024331935 -0.07011247 -0.18420681
-0.067020744 -0.35480168 -0.6169803 0.18647438 0.29042116 0.26093397 -0.25325635 -0.6138821
0.3031741 -0.060601037 -1.6662831 0.13830301 0.027928703 0.3843616 -0.024661215 -0.70058167
0.025920976 -0.08876282 -2.1776059 -1.1095718 0.34851983 0.0094864685 -0.72645247 -1.4586377
0.14595048 0.044471383 0.1791857 -0.021316571 0.12555769 0.25073516 0.26972288 0.15748443
-0.0060080555 0.04304556 0.017600132 -0.10734906 -0.10589465 0.04711722 -0.12742803 0.05745203

fc1.bias f4 [256]
00000000: eeab 463e ee7c 733e 3d8e 92bf 0743 953e
00000010: ab23 9b3e be0e a0bf 015e 113f 9b89 ad3e
00000020: a269 ef3e 6058 703e 867a 873e 6969 5f3e
00000030: 1abb 1fbf 3238 db3e 0e5b ed3e 0cc7 503e
00000040: 2925 b5be f9aa 8d3e 3aa6 8d3e 4e5a 993e
00000050: 97c3 273e 84d5 cabb 08fc 4a3e 7b22 d73e
00000060: 853e fd3e 9125 a93e 3100 e2be dcbc 023f
00000070: c8cf 123e 6bf8 233e 3025 a23e 6e3d 843e
00000080: 47e7 a83e ed86 683c c156 983e 93f9 cf3e
00000090: 4147 423e 5efc bf3e e083 c13e ab44 443e
000000a0: 28ac d73e 586f ac3e 3c25 debd 56e3 963e
000000b0: 8720 6c3e 1bc8 af3e 8fc0 5e3e 681f 1ebf
000000c0: efdb a23e 0793 9d3e 8fe9 c73e 6c75 993e
000000d0: 5202 be3e fe82 773e 4c31 c83e d89e b3be
000000e0: 9347 af3e 6651 79bf ee03 943e 4462 e7be
000000f0: 77fe d73e 6a93 9bbe c79a c13e d635 22bf
00000100: ac32 393e 2076 823e 6d94 cf3e f5b9 333e
00000110: 96f3 f73e 0a86 17bd 8d70 40be f1d1 a33e
00000120: f881 2e3e 508a a4bd 43df a03e e58d af3e
00000130: ce70 913e 00ff 353e c04c d93e ab1e f63a
00000140: f4f6 57bf bd40 49be dd2e 2b3e bf90 223e
00000150: 857b a23e bf81 6a3e 2c04 f93e dbc3 ec3e
00000160: 5778 cf3d e79e 0bbf 0edc bc3e bf15 863e
00000170: db9b 5dbe f8de d83e 9f51 953e 26a3 9c3e
00000180: 16bb 833e b1d0 883d 1c72 af3e 46fd 7b3e
00000190: 724f b53e a9a9 953e 17e8 663e 8df9 d9be
000001a0: e470 cf3e 474d 943e 9aed c43e d648 ccbd
000001b0: eb71 9d3e 00c5 bc3e 4e4c d03e 5b75 063f
000001c0: 2640 ae3e 3e07 a33e 4965 bd3e 7e7b 7a3e
000001d0: 8f28 b03e f3d5 e83e f086 823e 01d0 49be
000001e0: 3aee 943e fd07 133e 8569 0b3f e1b8 bc3d
000001f0: 1db4 86bf e1e5 f43e 4c55 053f fa0c 743e
00000200: 2101 03be 4e1f e63e 3ed5 cb3e 8cf4 28bf
00000210: d96b 3a3e bc63 9b3e 86ea f73e e98f 88be
00000220: bc88 5e3e bca7 c8bd 998f 2d3f 360e 9d3e
00000230: ef51 193e 8daa 9e3e 250f 583e a7ba a23e
00000240: eb53 df3e 18ec b53e a32d bf3e 73c6 0dbf
00000250: ae3c 7b3e 04b9 d03e 5e5b e43e 3bc9 963d
00000260: d0b7 b53e 7f1f e83e 2313 643e 9470 e63e
00000270: 35ad c63e 5c75 1f3f bed4 4a3e 49b9 37be
00000280: 06a3 e83d f038 af3e 40af db3e ba25 953e
00000290: e089 1cbf 81c6 c03e 1828 b93e 818e ac3e
000002a0: c4d8 1fbf 23e6 963e ae07 063b c3d9 b03e
000002b0: f650 a23e ed3a a73e 58df cabe 4df7 903e
000002c0: 589f 82be 0d5a 843e 29a0 78be 89be 493e
000002d0: 9fbd 953e 02a9 093f c032 dc3e 6375 6c3e
000002e0: 811c 673e 79a8 a03e 2457 c13e af60 39be
000002f0: 0b1e b33e f937 c53e 2c1e bb3e fd84 c63e
00000300: 5819 cb3e d2d3 963e 402b ab3e 846a e23e
00000310: d8d8 b23e 94a7 c63d e475 ba3e afc7 be3e
00000320: b81f 953e 218d b93e cc32 9abf 1343 70be
00000330: 738b 743e f508 b73e a572 04bf b0db 333e
00000340: 9460 8ebf 89a1 38be 54b9 dc3e bb63 a33d
00000350: 00d3 b53e 245d 683e 415b 643e 39f4 ae3e
00000360: 370e a73e 0747 c83e 7139 ae3e ea55 c0bd
00000370: 5e1a d53e 3684 1bbf 7593 c2be 9dec c73e
00000380: d3a7 38be 21eb 3dbf 661e 533e b57d b33e
00000390: caff 873e e228 023f 608a b93e be63 45be
000003a0: cbf7 65be 1695 b23e 531e bf3e b050 663e
000003b0: f149 9c3e 0637 65bf 1e9c 0fbe 8073 6ebf
000003c0: edd9 b13e c95a 133f 419f 8d3e e0cd 813e
000003d0: b4e1 ef3e ccee b83e a168 c03e 24b0 e93e
000003e0: 7188 af3e 1a4a 28bf d414 ab3e 5a61 64bd
000003f0: 887b 723e 0a8b 0b3e fa1a 293e 94a4 163f
0.19401523 0.23778126 -1.1449658 0.291527 0.3030065 -1.2504499 0.56784064 0.33894047
0.4676028 0.23471212 0.26460665 0.21817555 -0.6239487 0.4281631 0.46358532 0.2038843
-0.35379913 0.27669504 0.27665883 0.2995171 0.16383205 -0.006190004 0.19822705 0.42018494
0.4946176 0.33036473 -0.4414077 0.51069427 0.14337075 0.16012733 0.31668997 0.25828117
0.3298895 0.014192325 0.29753688 0.40620098 0.18972494 0.37497228 0.37795925 0.1916682
0.42123532 0.336787 -0.10846946 0.2947032 0.23059283 0.34332356 0.21753143 -0.6176667
0.3180842 0.30776235 0.3904538 0.29972398 0.37111145 0.24171063 0.3910011 -0.35082126
0.34234294 -0.9738983 0.28909248 -0.45192158 0.4218633 -0.30385906 0.37813398 -0.633634
0.18085736 0.25480747 0.40542927 0.17551406 0.4842803 -0.036993064 -0.18792935 0.3199611
0.17041767 -0.080341935 0.31420335 0.34287944 0.28406376 0.17773056 0.42441368 0.001877745
-0.84361196 -0.19653602 0.16717096 0.15875529 0.31734863 0.22901057 0.48635995 0.46243176
0.10130375 -0.5453934 0.36886638 0.26188466 -0.21641485 0.42357612 0.29163834 0.30593222
0.25728673 0.0668043 0.34266746 0.24608335 0.35412174 0.29231003 0.22549473 -0.42573205
0.40515816 0.28965208 0.38462526 -0.0997483 0.30750975 0.3686905 0.40683216 0.5252282
0.34033316 0.31841463 0.36991337 0.24461171 0.34405944 0.4547573 0.25493574 -0.19708253
0.29088002 0.14358516 0.54457885 0.0921495 -1.0523716 0.47831634 0.5208328 0.23833075
-0.127934 0.4494576 0.39811128 -0.6599815 0.18205203 0.3034953 0.48421115 -0.26672295
0.21731848 -0.09797618 0.6779724 0.30674905 0.14972661 0.30989495 0.21099527 0.3178303
0.43618712 0.35531688 0.37339506 -0.55380934 0.24534866 0.40766156 0.44600958 0.073626004
0.354918 0.4533653 0.22272925 0.45007765 0.3880402 0.6228845 0.19807717 -0.17941774
0.11359219 0.34223127 0.42907143 0.29130346 -0.6114788 0.37651446 0.36163402 0.33702472
-0.62440133 0.29472455 0.0020451355 0.3454114 0.31702393 0.32662144 -0.39623523 0.28313676
-0.25512195 0.25849953 -0.24279846 0.1970159 0.29246232 0.5377351 0.4300747 0.23091654
0.22569467 0.31378534 0.37761796 -0.18103288 0.34983858 0.38519266 0.36546457 0.38773337
0.39667773 0.2945848 0.33431435 0.4422189 0.34931064 0.09699932 0.36418068 0.37261721
0.29125762 0.36240485 -1.2046752 -0.23463087 0.2388132 0.3574902 -0.51737434 0.17564273
-1.1123223 -0.18030371 0.43110144 0.079780065 0.35512543 0.2269178 0.22300436 0.34170702
0.32628033 0.3911669 0.340282 -0.09391387 0.4162168 -0.6074861 -0.38003126 0.3904771
-0.1803277 -0.74186903 0.20617065 0.35056844 0.2656234 0.5084363 0.36238384 -0.1927633
-0.22457807 0.3487937 0.37327823 0.22491717 0.30525163 -0.89537084 -0.14024398 -0.9314499
0.34736577 0.575604 0.27660564 0.25352383 0.46851885 0.36119688 0.37579826 0.45642197
0.34283784 -0.6573807 0.33414328 -0.055756904 0.23679936 0.13627258 0.16514197 0.58844876

fc2.weight f4 [128, 256]
00000000: f21e 5fbe a093 1bbd 9783 4bbe bc0e b8bd
00000010: d9f0 d93d 744c 3ebe 1b92 323c bdde 263d
00000020: 13fc 9a3d 47c1 123e fe9d b3bd 6fb7 c5be
00000030: 0ae1 6dbe d07c ed3d 6b0d 573e b4ea e1bd
00000040: 6582 ff3c 242a 6e3d 2ed6 78be 2ad0 8d3e
00000050: 5afa a9bc 2dab 6b3d 0938 d6be be3b 30be
00000060: eee6 5e3d 096d 38be 7307 a5bc 9d9d c43d
00000070: 42e2 76be ea90 48be eb2b c0be 4ac1 37be
00000080: 849a 3ebe 9569 1dbe 356b 33be f7b7 14be
00000090: 850b 33be f254 21be a049 f23d 2e88 5abd
000000a0: b05d 4abd e2e4 8e3c d160 46be b633 313e
000000b0: 54e1 b6be 6911 b33d 3079 31be ec54 23be
000000c0: b324 513e ef82 00be d655 483e 2e72 90bd
000000d0: a683 053e c48f c4bd a72d 58be e500 55bd
000000e0: 380d 03bd 1044 86bc 767b 823e ad90 103c
000000f0: 8d93 ebbd dffc f63c a36e 7f3e bed4 57be
00000100: 989b 94bd d1f7 42be f559 e9be 87a8 33bd
00000110: 3f10 733e 6d3d 80bd 053c 7bbd 6d8a 533e
00000120: c6f4 c9be db46 25bd 5cca a9be 609a fcbd
00000130: 60fb b43d a415 e6bc 70fd 2f3d c9c5 df3c
00000140: 61eb f7bd 97a7 17bd 7edc 2d3d e586 bcbd
00000150: 89ea fabc b64b 9fbc 01ee 16bf 469b fc3b
00000160: 3cbf 86be c3df ddbd c82d 99bd d34a 84bd
00000170: e727 ddbd 263d a93d 57ad e23d 511b 3c3e
00000180: 1968 6fbe 1c03 2cbd 1254 7abe fe73 e43d
00000190: 1131 ad3d e393 0cbd f68e 1b3e 4fe0 10be
000001a0: 341c 89bd d281 0ebe 135a cabd 2cfe a83d
000001b0: 9467 f23d be75 6b3d e335 ccbe 494a 9bbe
000001c0: f655 0cbe ba84 6fbe df01 8fbe d348 1dbd
000001d0: c795 d13d e7c0 0f3e c2e1 80bd 99af fbbd
000001e0: 8b5e 3bbe b1bb ce3c 8db9 db3d 93e6 90bd
000001f0: 0020 6dbd 8ae6 cebb f1e3 4cbb d274 ccbd
00000200: 987e ac3d fefb de3d 65cb 09bf 6d85 dbbc
00000210: 1db4 92be 936f 343e 902e cabe 6708 dfbd
00000220: 7bc8 65bc aa9d a73d 8220 8dbe fba2 063e
00000230: 76de 64bd 7449 76be 7f0c 98bd 45d1 bcbd
00000240: f11b c93d 816a 00be bb49 063e c70f 90bc
00000250: d44d 14bd ff73 70be f2e4 c8bd 1b88 bebc
00000260: 2910 4cbc 14e5 193e 72ff 9abd a777 413e
00000270: c122 043e 7271 dabe 072a db3d 124c 2ebe
00000280: 27a3 13be ee50 d93d 2611 97bd e4b1 443d
00000290: 13ee b5bc 5af4 363e 216b f03d 1a1f 7bbc
000002a0: 0be3 433d b4b3 d2bc 5b8a 15bc 6031 08bf
000002b0: 529f b43d b49b 8b3d 7c6a 0f3e 952b 47bc
000002c0: fd9b 963d dd3c 95be 80a2 c8bd b21e f93d
000002d0: e035 17bd 2531 03bf 6235 46be 9e7f 1dbe
000002e0: e4a5 4e3c 8544 53bd 6b70 c13c b157 b0be
000002f0: ac37 a13c 4ef6 753d f712 1ebf 69ce 5bbd
00000300: 44a3 e33c 04b7 c63d 4b25 283e 1047 8b3e
00000310: ba6d 823e 4635 4dbc c3e1 813c a653 e1bd
00000320: 851f d63e 7a4a 253d 9e9b 42bb 61e0 263e
00000330: e508 bcbd 84d1 7ebd 3eee ed3d 5901 09be
00000340: 5669 0e3e d3fe 99bd c0bd 90be 9e23 d6bd
00000350: 7873 ddbd 76db 37bc 7e3d 533e 0137 313e
00000360: 0232 5b3d ba67 f9bc df19 6fbe 1e0a 7abd
00000370: 5705 28be 8100 5abe 0b5d 583c caa5 05bd
00000380: b5ba 9d3d f14c 02be 26fd 073d 9048 fa3c
00000390: fefd 92be 630f c0be 916b 513c 1c2a 7f3d
000003a0: a4d3 fabd 003e 613c e994 cfbc bb75 dd3d
000003b0: e692 8cbe ea87 943d f93d 1e3d dce2 c93d
000003c0: 72b9 bc3b 0bd7 8dbc 8133 e33d 7ff9 82be
000003d0: 2f3c 473e 8352 9dbe 08c8 f4bd ea54 0fbb
000003e0: 6cec d13d 05ff b1be 1c0e cebe e107 953c
000003f0: 6c2f fabd 7b0f 93be 52b3 2cbf 7bfd 2fbe
-0.21789148 -0.037982583 -0.19874416 -0.08987185 0.10641641 -0.18583852 0.010899092 0.040739764
0.075676106 0.14331542 -0.08770369 -0.3861651 -0.23230377 0.11596072 0.21001212 -0.11031094
0.031190107 0.058145657 -0.24300453 0.2769788 -0.02074926 0.057536293 -0.41839626 -0.1721029
0.05441945 -0.18010344 -0.020145154 0.09600375 -0.24109748 -0.1958653 -0.37533507 -0.17944828
-0.1861363 -0.15372308 -0.17521365 -0.14523302 -0.17484863 -0.1575506 0.11830449 -0.053352527
-0.049405754 0.017443124 -0.1937287 0.17304882 -0.35718787 0.08743555 -0.17331386 -0.15950364
0.20424156 -0.12549947 0.19563994 -0.07053028 0.13038501 -0.095977336 -0.21111165 -0.052002806
-0.03199503 -0.016389877 0.25484818 0.008823556 -0.115027525 0.030149875 0.24944548 -0.21077248
-0.0725624 -0.19039847 -0.45576444 -0.043861892 0.23736666 -0.06261716 -0.061336536 0.20658274
-0.3944456 -0.040350776 -0.331622 -0.12334132 0.088370085 -0.02808649 0.042966306 0.027315991
-0.12105442 -0.03702506 0.042446606 -0.092054166 -0.030629413 -0.019445281 -0.58956915 0.0077089397
-0.26317775 -0.10833695 -0.07479435 -0.06459584 -0.107986264 0.08263616 0.11068218 0.18369795
-0.23379554 -0.041995153 -0.24446133 0.11154936 0.08456624 -0.034320723 0.15191254 -0.14148067
-0.066948324 -0.1391671 -0.098804615 0.082516044 0.11836162 0.057485335 -0.39884862 -0.30330113
-0.13704666 -0.23390475 -0.27931115 -0.03839953 0.10233646 0.1403843 -0.0629306 -0.12289352
-0.18297784 0.025235983 0.107287504 -0.070752285 -0.057891846 -0.0063141035 -0.0031263793 -0.09983219
0.08422583 0.108879074 -0.5382598 -0.02679702 -0.2865304 0.17620687 -0.3948865 -0.108902745
-0.014024849 0.08184369 -0.27563864 0.1314811 -0.055876218 -0.24051458 -0.074242584 -0.092196025
0.098197825 -0.12540628 0.13114063 -0.017585648 -0.036207035 -0.23481749 -0.09809293 -0.02325826
-0.012455025 0.15028793 -0.075682536 0.188933 0.12903883 -0.42664677 0.107013755 -0.17021206
-0.14417706 0.10611139 -0.07376318 0.048021212 -0.02220825 0.1786665 0.11739183 -0.015327239
0.047823947 -0.025720455 -0.009127225 -0.5320034 0.088194504 0.068168074 0.14005464 -0.012156387
0.07353971 -0.29147997 -0.097966194 0.12164058 -0.036916614 -0.51246864 -0.19356301 -0.15380713
0.012612794 -0.051579017 0.023613175 -0.34441903 0.019679867 0.060049348 -0.6174769 -0.053663645
0.027787812 0.09702876 0.16420476 0.27202654 0.2547434 -0.012524908 0.015854722 -0.11002283
0.41820922 0.04035423 -0.0029694806 0.16296531 -0.09181384 -0.06221153 0.11617707 -0.1337942
0.1390737 -0.07519307 -0.28269768 -0.10456012 -0.108130395 -0.011221757 0.20628926 0.17306139
0.053514488 -0.030444968 -0.23349713 -0.061044805 -0.16408287 -0.21289255 0.013205777 -0.032628812
0.07701627 -0.12724663 0.033200406 0.030552179 -0.28709406 -0.3751174 0.0127819935 0.062296018
-0.122473985 0.013747692 -0.02533956 0.10813471 -0.27455825 0.07252486 0.03863332 0.09857723
0.0057594115 -0.017314455 0.11093808 -0.25580975 0.19456552 -0.30727014 -0.119522154 -0.002187068
0.10250172 -0.34764877 -0.4024514 0.018192234 -0.12216076 -0.28722748 -0.6746112 -0.17186539

fc2.bias f4 [128]
00000000: 880f 9f3f e362 a93f 84f0 393f 56b3 bf3f
00000010: c575 6e3f 2348 4c3f 88ab 843f 16c6 b93f
00000020: e127 943f 8ccd 9d3f 470d 9d3f f309 af3f
00000030: 5307 a43f 37b4 a63f 3c98 9a3f 5014 833f
00000040: 306c 983f b8e9 013f 5fc7 8d3f 4af4 8b3f
00000050: 435f 323f 7986 8c3f 6e37 993f 99e9 703f
00000060: e0f1 923f 4c65 bf3f 0885 753f 54e9 9a3f
00000070: bef1 113f 26ee 623f ac4e 3b3f e0cf 983f
00000080: ab76 653f f3a3 893f 2d7c 943f 935e 583f
00000090: 0836 b63f 59a3 ad3f 3e99 9a3f 1914 6d3f
000000a0: 082b 883f 1f79 7e3f 75e7 823f 1d10 ba3f
000000b0: 37b1 a03f 4ca1 b23f 71ef 6b3f 248e 803f
000000c0: c025 533f cf16 b13f 07a6 863f bb0d 853f
000000d0: 41b4 9e3f cfef 723f 5dc6 be3f 0685 803f
000000e0: 6350 803f aba6 7b3f cc18 943f 9695 6b3f
000000f0: 0016 9e3f c968 463f 5e9b b83f 29b9 c63f
00000100: 78d5 6d3f 8e04 8d3f 84d2 c33f dc87 9a3f
00000110: d56d 8d3f 0f5b 9c3f 81eb 753f e2bb 513f
00000120: 2e27 8d3f 235c 813f a411 0c3f 227d 813f
00000130: 8615 873f 92c4 6c3f 1be5 733f 6461 963f
00000140: ccc8 713f f357 993f cc37 733f 59e8 623f
00000150: 6ebf 9c3f cb3e 933f 8ee4 973f 1fd0 a13f
00000160: 5dcc 653f 2c05 a63f f708 683f dab1 b03f
00000170: 9f2a 7a3f 8f5d b33f 4150 973f 5dc7 903f
00000180: 5e23 273f cd5b 813f 57d4 9a3f ded0 c43f
00000190: 6d24 ab3f 2532 8e3f 2374 9a3f 9d5c 743f
000001a0: a0c9 853f 4d40 933f 1d02 703f 62d6 843f
000001b0: bfef 4b3f c046 8e3f 3d35 953f 79c3 993f
000001c0: 246e a93f a43c a93f e32e c13f 76fe 243f
000001d0: 8f20 ad3f baf2 ba3f 8394 2a3f c491 953f
000001e0: 7037 763f 8193 a43f 3955 d53f 5fee 303f
000001f0: f5d5 4f3f ae41 1a3f 689f 643f a474 963f
1.2426615 1.3233303 0.7263262 1.4976604 0.9314845 0.7979757 1.0364847 1.4513576
1.157467 1.2328353 1.2269677 1.3674911 1.2814735 1.3023747 1.2077708 1.0240574
1.1908016 0.5074725 1.1076468 1.0933926 0.6967661 1.0978538 1.1970041 0.9410644
1.1480064 1.4952788 0.95906115 1.2102456 0.57009494 0.88644636 0.7316692 1.1938438
0.896342 1.0753158 1.1600395 0.8451931 1.4235239 1.3565475 1.2078016 0.9260879
1.0638132 0.99403566 1.0226885 1.4536167 1.2554082 1.3955474 0.92162234 1.0043378
0.82479477 1.3835086 1.0519418 1.0394815 1.2398759 0.9489717 1.4904286 1.0040596
1.0024532 0.9830119 1.1570067 0.92025125 1.2350464 0.7750364 1.4422414 1.5525256
0.9290385 1.1017015 1.5298619 1.2072711 1.1049143 1.2215289 0.96062475 0.8192731
1.1027582 1.0106243 0.5471442 1.0116313 1.0553443 0.9248744 0.9527146 1.1748471
0.94447017 1.1979965 0.95007014 0.88635784 1.224592 1.1503538 1.1866624 1.2641639
0.8976496 1.2970328 0.9063868 1.3804276 0.97721285 1.4012927 1.1821367 1.1310841
0.6528834 1.010614 1.2096051 1.5376241 1.3370491 1.1109053 1.2066692 0.95453817
1.0452156 1.1503998 0.93753225 1.0377924 0.796627 1.1115341 1.1656872 1.2012779
1.3236737 1.3221631 1.5092434 0.64450777 1.3525561 1.4605324 0.6663286 1.1685109
0.9617834 1.2857515 1.6666633 0.69113725 0.8118585 0.6025647 0.89305735 1.1754346

fc3.weight f4 [6, 128]
00000000: 0ebe 89be 859d 25bd 2fae 62bd 341e 2ebe
00000010: 2227 353c 59f3 053c cd82 b8bc 33a6 13be
00000020: 7815 6fbd 0e45 34bd e1fc 3cbe 1924 56be
00000030: e93c 8dbd 320a 1fbd 6c36 06be dbbf abbc
00000040: b51f 153d f0bb 6ebd e800 42be 4b90 11be
00000050: d6dd cebd d115 48bd 1661 a0bd d1d8 20be
00000060: b289 55be 886c 4ebe 4b87 54be 2aa5 aebd
00000070: eca8 86bd d14b 60bd 6493 dabd d45c 6a3c
00000080: 2f78 84bd 1bd5 3e3c 65e2 47be 4182 96be
00000090: 6fbc 1abd 83dd d5bd 63fe 46be 9e77 99bd
000000a0: 648a 31bd d35f 543b 47e6 62be 9223 7ebd
000000b0: 44d8 ffbd c831 e4bd 3f5f 7fbd ffac 6abe
000000c0: 923e 9abd 48e7 08be 1cc8 dcbc 0699 85bd
000000d0: 1142 80bd 93d3 26bc 0449 e9bd 6fe2 a2bd
000000e0: 385c 4dbe 7401 973c 140a 85be 15af 33bc
000000f0: df4a 3dbe 3f36 d1bc b525 1ebe 33b6 31be
00000100: 9529 33bd e7f5 d9bc a43a 2fbd 2b5e 5abd
00000110: 2994 2cbe f211 40be be30 76be 441d 48be
00000120: b8aa b03c 27c6 2fbd 43f8 8abd d8e7 22be
00000130: 3bf0 7cbd baf2 e5bc da03 2ebd 253f 5ebe
00000140: c52b 69be 749a b5bd e5d6 a83b 49f6 2bbb
00000150: 322d b3bb 2074 bd3c f1e8 51be ebbb 2dbe
00000160: 2e55 99bd 9539 6abd f0bf b4bb 4a80 29be
00000170: 2c10 913c 2a5c 7bbe 4d80 0cbd 320e 21bd
00000180: 8a1b dcbd 7eab c9bc 3a88 41bd ca77 5fbd
00000190: ac6b 8bbd b687 fabd f88e 09bd 11e7 55be
000001a0: 05ce e6bc 2c88 80be 3b94 57bd 1ff5 023d
000001b0: 364b 88bc 01f1 65bd 3eac 78bd 76df 1ebe
000001c0: 1271 eabd f3ae 8dbe f327 07bd cc17 b4bd
000001d0: 2097 29be 20e8 33bd bd9a 03be ce77 d3bd
000001e0: 5621 64bc 31ed 173d ce14 3bbe 1f19 80bd
000001f0: bd29 21bd d6f7 69be d4d0 c1bd 3c44 a4bc
00000200: 71dd 00bd d473 7fbe 5729 c6bd af70 a2bd
00000210: f52e 173c d650 b0bb eb35 ddbc 9b27 5dbd
00000220: ad06 7cbd 1bac 54be d006 a5bd e4fc 943c
00000230: 6520 b5bb 621f 1dbe 0d9d 96be b156 2abe
00000240: bafc 45be d57b d3bd c122 4ebe ef91 06bc
00000250: d0fd 2ebe 5faf 52bd 9164 0ebe 183e cebc
00000260: f479 71be d26d 70be c109 4fbe a225 3cbd
00000270: 786b b7bd 88ae 33be e085 99bb d3b0 ae3b
00000280: 1c85 7dbe 369a a63c 5b6a 48bd 3a10 23be
00000290: 2474 2dbc c007 acbe 50f4 48bd 0686 81be
000002a0: dc02 9cbe 40d7 0cbe e1b5 cebe 2e5e 65bd
000002b0: d4d3 2bbd 591d 8fbd 8b40 50be 00d9 84be
000002c0: 7d74 85bd ecc4 3cbd f63e 94bd 606b 95bd
000002d0: 19c7 52bd 294e 90bc 3aa1 3bbd 9993 62bd
000002e0: 5db5 08be 6cf8 0bbe e3c1 39be ea7d 0f3c
000002f0: c2d6 aabd aaa2 cfbc 1625 8bbe 0257 c1bd
00000300: 09eb 1abd 00e7 febc 9136 b4bd c99e 11be
00000310: 685b 83be f257 94be 58ce 0cbe d6d3 0bbe
00000320: d9ef 663c 3c92 71be a1a3 8bbc 5bd0 48be
00000330: 6346 22be 67e6 23be f130 82bd 7e2f afbd
00000340: fc23 f6bd 8f64 40bd 0a87 2bbe 41d7 babb
00000350: 569f 2cbc 436d 3c3d 34fe a0bd 760c 45bd
00000360: 14d8 91bd 2243 27bd ea61 28be f06a 763c
00000370: 7c88 823c c4ac 31be 61cf 03be bcd4 ddbd
00000380: 7b74 21be 0313 bfbc 3bc1 2abe 41b8 42bd
00000390: 1763 55bd d55e aebb bc52 2ebe d0bd f9bd
000003a0: 0f09 e6bd 858f e3bd b407 63bd 7a36 4bbe
000003b0: a3fe 80bd de6b 2cbe 1038 283b d98a 25be
000003c0: 2e40 0dbe fad7 e3bd fcaa 89bd 8f63 8cbd
000003d0: 89e4 57bd 493b 19be a084 cabd 951f 1cbd
000003e0: a882 86be 4670 663b 77aa 95bd f4ef acbd
000003f0: d5bc d2bd 8856 1abe 4d1d 9dbd 9e0f a4bd
-0.26902813 -0.040433425 -0.055341896 -0.17003709 0.011056693 0.008175694 -0.022523308 -0.14418869
-0.058370084 -0.04401117 -0.1845584 -0.20912208 -0.06896383 -0.038828082 -0.13106698 -0.020965507
0.03640719 -0.0582847 -0.18945658 -0.142152 -0.101009056 -0.04884893 -0.07831018 -0.15707709
-0.20853308 -0.20158589 -0.20754735 -0.08527596 -0.06575188 -0.054759804 -0.10672644 0.0143043585
-0.06468236 0.011647488 -0.19519956 -0.2939625 -0.03777736 -0.10442641 -0.19432978 -0.07493518
-0.04334487 0.0032405748 -0.22158156 -0.06204564 -0.12492421 -0.111423075 -0.062346693 -0.22917555
-0.075314656 -0.13369477 -0.026950888 -0.065233275 -0.06262601 -0.010182279 -0.1139088 -0.07953345
-0.2005471 0.01843331 -0.25984251 -0.010967036 -0.18485592 -0.025538562 -0.15444072 -0.1735466
-0.043740828 -0.026606513 -0.042780533 -0.05331246 -0.16853394 -0.18756846 -0.24042031 -0.19542414
0.02156578 -0.042913582 -0.067856334 -0.15908754 -0.06175254 -0.028069843 -0.042484142 -0.21703775
-0.22770603 -0.0886735 0.0051525705 -0.0026239327 -0.005468034 0.023126662 -0.20499016 -0.16966216
-0.0748695 -0.05718382 -0.005516045 -0.16552845 0.017707907 -0.24546877 -0.034302045 -0.03932018
-0.1074744 -0.024617907 -0.047249056 -0.0545576 -0.06807646 -0.12232916 -0.03358361 -0.20888926
-0.02817441 -0.2510389 -0.052631598 0.031972047 -0.016637426 -0.056138042 -0.060711138 -0.15514931
-0.11447348 -0.27672538 -0.032997083 -0.087936014 -0.16561556 -0.043922544 -0.12851997 -0.10325585
-0.0139239635 0.037091438 -0.18269655 -0.062547915 -0.039346445 -0.22848448 -0.09463659 -0.020052068
-0.031461183 -0.24946529 -0.09675854 -0.07931649 0.009227504 -0.00538073 -0.02700325 -0.05399285
-0.061529804 -0.20768778 -0.0805794 0.018186994 -0.0055275434 -0.15344003 -0.29416695 -0.16634633
-0.19334689 -0.103263535 -0.20130445 -0.008213504 -0.1708901 -0.05143678 -0.1390555 -0.025176093
-0.23581678 -0.23479393 -0.20218565 -0.045934327 -0.08956045 -0.17547047 -0.0046851486 0.0053311377
-0.24757808 0.020337205 -0.048929553 -0.15924159 -0.010586772 -0.33599663 -0.04906112 -0.25297564
-0.30470932 -0.13753986 -0.40373138 -0.05599802 -0.041950062 -0.069880195 -0.20337121 -0.25946808
-0.06516359 -0.046086237 -0.07238571 -0.07295871 -0.051459406 -0.017615395 -0.045808055 -0.05531654
-0.13350435 -0.13668984 -0.18140368 0.008758048 -0.08341743 -0.025346119 -0.27176732 -0.094404235
-0.037821803 -0.031116009 -0.0879947 -0.14220728 -0.25655675 -0.28973347 -0.13750589 -0.13655028
0.01409527 -0.2359094 -0.017045798 -0.19610731 -0.15847163 -0.1600586 -0.06356991 -0.0855398
-0.12018582 -0.0469709 -0.16750732 -0.00570193 -0.0105360355 0.046002638 -0.078609854 -0.048107587
-0.07121292 -0.040835507 -0.16443601 0.015040144 0.015934221 -0.17351061 -0.12872078 -0.108315915
-0.1576709 -0.023324495 -0.16675274 -0.047539 -0.052096453 -0.0053213635 -0.17023748 -0.12194407
-0.112321965 -0.111113586 -0.05542727 -0.19845 -0.06298568 -0.16838023 0.0025668181 -0.16166247
-0.13794014 -0.11125179 -0.06722066 -0.06854927 -0.052708182 -0.14964022 -0.098885775 -0.038116056
-0.26271558 0.0035162135 -0.07307904 -0.08444205 -0.10289923 -0.15072072 -0.07671604 -0.08010791

fc3.bias f4 [6]
00000000: 50a1 af3d 87ef 41bb 256e f8bd 4103 e4bd
00000010: c031 fe3d 7b5f 25be
0.0857569 -0.0029592232 -0.121303834 -0.11133433 0.12411833 -0.16149704
